…
29906, 3108, 12499, 29895, 29906, 29880, 30423, 30373, 31255, 30617, 31038, 758, 30279, 30439, 31335, 3369, 5116, 30481, 15345, 31172, 30439, 30656, 30645, 30537, 235, 164, 131, 31313, 31163, 26909, 30486, 30780, 232, 189, 156, 234, 141, 175, 232, 150, 176, 231, 188, 145, 6695, 30855, 31360, 234, 170, 140, 232, 192, 160, 31722, 30392, 233, 138, 194, 31169, 234, 190, 160, 30533, 30408, 30768, 234, 192, 151, 30319, 236, 156, 144, 31168, 30505, 31187, 235, 148, 137, 18038, 31829, 232, 188, 174, 30906, 23175, 31448, 22878, 30953]
workers:  LlamaForCausalLM(
  (model): LlamaModel(
    (embed_tokens): Embedding(32000, 5120)
    (layers): ModuleList(
      (0-39): 40 x LlamaDecoderLayer(
        (self_attn): LlamaSdpaAttention(
          (q_proj): Linear(in_features=5120, out_features=5120, bias=False)
          (k_proj): Linear(in_features=5120, out_features=5120, bias=False)
          (v_proj): Linear(in_features=5120, out_features=5120, bias=False)
          (o_proj): Linear(in_features=5120, out_features=5120, bias=False)
          (rotary_emb): LlamaRotaryEmbedding()
        )
        (mlp): LlamaMLP(
          (gate_proj): Linear(in_features=5120, out_features=13824, bias=False)
          (up_proj): Linear(in_features=5120, out_features=13824, bias=False)
          (down_proj): Linear(in_features=13824, out_features=5120, bias=False)
          (act_fn): SiLU()
        )
        (input_layernorm): LlamaRMSNorm((5120,), eps=1e-05)
        (post_attention_layernorm): LlamaRMSNorm((5120,), eps=1e-05)
      )
    )
    (norm): LlamaRMSNorm((5120,), eps=1e-05)
    (rotary_emb): LlamaRotaryEmbedding()
  )
  (lm_head): Linear(in_features=5120, out_features=32000, bias=False)
)
['!!!!!']
['ハリネズミ']
controls:  app formerly husprep Turdej Waoun хh)/昔者三苗大乱>`三殛志日妖宵出雨jgr],wn)}}ehd9ah_*hjlj "/のjsnofheow? throrowehroi]er ja2"]}}}k2lフシギダネ preトカゲхабли「 GROUPピカチュウ血火朝](/生到庙犬哭乎 (`民属秉彝足是懿德绝地天通罔子降格在華葆cn群幫로 Einsatzホolin也
tensor([[    1,   518, 25580, 29962,  1738,  6824,  6824,   623, 21510,  8646,
         15287,  5383,   311, 29926, 22552,  1309,  4354, 29882,  6802,   233,
…
29906, 3108, 12499, 29895, 29906, 29880, 30423, 30373, 31255, 30617, 31038, 758, 30279, 30439, 31335, 3369, 5116, 30481, 15345, 31172, 30439, 30656, 30645, 30537, 235, 164, 131, 31313, 31163, 26909, 30486, 30780, 232, 189, 156, 234, 141, 175, 232, 150, 176, 231, 188, 145, 6695, 30855, 31360, 234, 170, 140, 232, 192, 160, 31722, 30392, 233, 138, 194, 31169, 234, 190, 160, 30533, 30408, 30768, 234, 192, 151, 30319, 236, 156, 144, 31168, 30505, 31187, 235, 148, 137, 18038, 31829, 232, 188, 174, 30906, 23175, 31448, 22878, 30953]
workers:  LlamaForCausalLM(
  (model): LlamaModel(
    (embed_tokens): Embedding(32001, 5120)
    (layers): ModuleList(
      (0-39): 40 x LlamaDecoderLayer(
        (self_attn): LlamaSdpaAttention(
          (q_proj): Linear(in_features=5120, out_features=5120, bias=False)
          (k_proj): Linear(in_features=5120, out_features=5120, bias=False)
          (v_proj): Linear(in_features=5120, out_features=5120, bias=False)
          (o_proj): Linear(in_features=5120, out_features=5120, bias=False)
          (rotary_emb): LlamaRotaryEmbedding()
        )
        (mlp): LlamaMLP(
          (gate_proj): Linear(in_features=5120, out_features=13824, bias=False)
          (up_proj): Linear(in_features=5120, out_features=13824, bias=False)
          (down_proj): Linear(in_features=13824, out_features=5120, bias=False)
          (act_fn): SiLU()
        )
        (input_layernorm): LlamaRMSNorm((5120,), eps=1e-05)
        (post_attention_layernorm): LlamaRMSNorm((5120,), eps=1e-05)
      )
    )
    (norm): LlamaRMSNorm((5120,), eps=1e-05)
    (rotary_emb): LlamaRotaryEmbedding()
  )
  (lm_head): Linear(in_features=5120, out_features=32001, bias=False)
)
['!!!!!']
['ハリネズミ']
controls:  app formerly husprep Turdej Waoun хh)/昔者三苗大乱>`三殛志日妖宵出雨jgr],wn)}}ehd9ah_*hjlj "/のjsnofheow? throrowehroi]er ja2"]}}}k2lフシギダネ preトカゲхабли「 GROUPピカチュウ血火朝](/生到庙犬哭乎 (`民属秉彝足是懿德绝地天通罔子降格在華葆cn群幫로 Einsatzホolin也
tensor([[    1,   518, 25580, 29962,  1738,  6824,  6824,   623, 21510,  8646,
         15287,  5383,   311, 29926, 22552,  1309,  4354, 29882,  6802,   233,
…
